CHP-project/best_lstm_model.pth (torch, 541317 bytes, 9 tensors)

encoder.weight_ih_l0 f4 [512, 1]
000000 12 21 42 3d 52 33 2e 3d a5 8a bc bd 6b 61 c4 bd
       0.04739482 0.04252941 -0.09206132 -0.095888935
000010 e5 f9 24 bd 23 ab 09 bd 89 63 79 bd 25 1b d9 3d
       -0.04027738 -0.033610474 -0.06088594 0.106008805
000020 37 29 90 3d 57 fb 2a 3d f5 b6 dc bb 1a 00 e4 3d
       0.07039111 0.041743603 -0.0067356774 0.11132832
000030 38 c5 cd bd c1 e4 4f bd 8f 97 eb 3c b5 68 cc bd
       -0.10047382 -0.050755266 0.028758792 -0.09980909
000040 0e b1 6a bd 71 fb 88 3d 6a e0 6d bd 77 db 5a bd
       -0.05729776 0.06688584 -0.058075346 -0.053431954
000050 a8 bc f9 bd 6a 7a 7d bb 97 a2 aa bd 09 6b ec bd
       -0.121941864 -0.00386777 -0.08331793 -0.11543853
000060 6f 71 5a bd dd b8 2e 3d 8b 74 4d bd 54 22 43 bd
       -0.053330835 0.042656768 -0.050159972 -0.04764016
000070 9c 59 bc bd a7 17 09 3c b9 4c 2d 3d bd da 10 be
       -0.09196779 0.008367456 0.042309497 -0.14145942
000080 88 7d b7 bc 41 e7 1e 3d 33 d2 d7 bc ff 62 a0 3d
       -0.022398725 0.03879476 -0.026345348 0.07831382
000090 61 72 0a 3e 5d e2 b4 bc 52 20 d0 3b c6 c9 2a 3d
       0.13520195 -0.022080595 0.006351509 0.041696332
0000a0 7d 7f 80 3c ef 5d 56 3b 25 70 7d 3d ee 63 78 3d
       0.015685791 0.0032709797 0.061874527 0.060642175
0000b0 11 15 c5 3c 4f e3 b6 3d 18 5e 51 bd 3c d3 99 bb
       0.024057897 0.089300744 -0.051115125 -0.0046943706
0000c0 8f b8 50 bd 10 10 8e 3d b9 1f e2 bd 93 c2 59 3d
       -0.05095726 0.069366574 -0.11041207 0.053164076
0000d0 9f ed 43 3c 39 71 9e bd 9c d2 f2 3d 86 d4 52 bb
       0.011958509 -0.07736439 0.11856577 -0.003217013
0000e0 8f 2c 5a bd 4f 9e 3f 3d d1 d4 f6 bc a1 3d 53 3d
       -0.05326515 0.046781834 -0.030130776 0.051572446
0000f0 ac c1 7d 3d 28 c6 bf bb 1c 7c 18 3d 98 ce 84 bd
       0.061952278 -0.0058524795 0.037227735 -0.06484717
000100 55 96 bc bd 50 11 09 3d 68 c6 7c bc 32 8a b4 bd
       -0.09208361 0.033463776 -0.015428163 -0.08815421
000110 22 c2 b5 bc 59 17 81 3d e3 fe 89 3d 6e 49 a6 bd
       -0.022187296 0.06303281 0.06738069 -0.08119474
000120 91 d4 f6 bd 19 a5 01 bd 1b 6b b0 bd 3f 1c a8 bd
       -0.120522626 -0.03165159 -0.08614179 -0.082085125
000130 83 dc 14 3c 6b fc f5 3c ac fb 97 3d e4 68 40 3b
       0.009085777 0.030027589 0.074210495 0.0029359395
000140 8c 8a cb 3d 09 66 07 be 30 93 01 be 78 44 2d bd
       0.09938535 -0.13222517 -0.12653804 -0.042301625
000150 08 53 17 bc 84 80 2e bd b0 9e e7 bc 50 bf cf bc
       -0.009236105 -0.04260303 -0.02827391 -0.02535978
000160 22 99 21 bd 6b 11 85 3c 1b 12 df 3b 8d 62 cc 3c
       -0.03945268 0.016243657 0.0068075783 0.024949336
000170 15 cc 17 3e 89 d2 bb bd b5 e1 d2 bc a0 be 95 3d
       0.14823945 -0.09171016 -0.025742391 0.073117495
000180 37 0c a4 3d 96 04 79 bc b2 b1 08 bd bd 74 fc bc
       0.08010142 -0.015198847 -0.03337259 -0.030817384
000190 c0 99 0a be fb f0 83 3d dc 2a 12 3d de 9a 36 3d
       -0.13535213 0.06442448 0.035685405 0.044581287
0001a0 ba 3f 79 3d 32 bf 99 3d 79 40 b5 3d 39 23 e2 3c
       0.06085179 0.07507171 0.08850188 0.027604686
0001b0 50 02 59 3c 76 e1 e5 bd ca d2 e9 3d f5 12 38 bd
       0.01324518 -0.11224644 0.11417158 -0.044939954
0001c0 2d 79 3c bd 34 30 89 3d f9 f2 10 3d 8b d2 4d bd
       -0.046014 0.06698647 0.035387967 -0.050249618
0001d0 d9 a1 a1 3d 09 40 d9 bd ef 49 a1 bd 39 14 b1 bd
       0.07892198 -0.10607917 -0.0787543 -0.08646435
0001e0 1d 8f 62 3d c7 7a a1 3c 8b 1d 09 be ed 23 95 bd
       0.055312265 0.019711865 -0.13390176 -0.07282243
0001f0 1e 41 39 3d 40 ea ed bd e2 01 23 3e cf f5 d5 3d
       0.045228116 -0.11616945 0.15918687 0.10447275
000200 c4 b5 27 bd 20 d0 59 3c 4a d3 2d bc e8 1a 3d 3c
       -0.04094483 0.01329425 -0.010609457 0.0115420595
000210 94 78 86 3d db 9b 9e bd 0d ac 9f bd 0b f1 8f 3b
       0.06565967 -0.07744571 -0.07796488 0.0043927482
000220 9f cf 40 3d 0e 71 ec 3c e4 4c 7b 3c 32 7f 36 3c
       0.047073003 0.028862502 0.015338156 0.011138724
000230 f8 22 34 3c 4c 64 41 3d 85 22 00 be 85 77 71 bd
       0.010994665 0.04721479 -0.12513168 -0.058951873
000240 fb 90 4e bd 30 84 10 bd 02 a8 a9 3d d9 77 a9 3c
       -0.050431233 -0.035282314 0.08283998 0.02068703
000250 b0 4a 0e be a9 25 d7 bd 96 65 d7 bb 58 b9 81 bd
       -0.13895679 -0.1050523 -0.0065733893 -0.0633418
000260 c4 74 4c bd c2 23 e1 bc d7 62 75 bd 52 2e 5b 3d
       -0.049916044 -0.027482871 -0.059908714 0.05351097
000270 f2 8e f7 3c ea d9 ea 3d 58 4f 3b bd 08 ec 9c bd
       0.030219529 0.11467345 -0.045729965 -0.07662207
000280 0f 4a cb bc d3 fc 5c 3d ae ae 9a bd 1b 39 ce 3d
       -0.024815587 0.05395205 -0.07552849 0.10069486
000290 da 4c df 3d aa d7 a0 3c 23 e5 9c bd 1a 78 b0 bd
       0.1090333 0.019634087 -0.07660892 -0.086166576
0002a0 7b b0 d6 3d 31 34 78 39 d2 fd 36 bd 02 0b 5a bd
       0.1048288 0.00023670566 -0.044675656 -0.053233154
0002b0 da 5f 91 bd 53 35 35 bb b6 45 f9 3c d0 6a 89 bd
       -0.0709836 -0.0027650192 0.030428749 -0.06709826
0002c0 cd 37 56 3c e9 d2 95 bc d1 bd ce bd 5c 07 b0 3c
       0.013074827 -0.018289046 -0.10094798 0.021487884
0002d0 90 87 80 3d 94 50 99 3c 2c 12 7f 3c b2 58 90 bd
       0.062758565 0.01871518 0.015568297 -0.07048167
0002e0 44 ec d1 3d 90 63 44 3d 69 80 52 bd 6f 25 90 3c
       0.10250142 0.047946513 -0.051391993 0.017595975
0002f0 36 56 c7 3d 4c db 3d 3c f4 5c 37 bd ec a4 45 3d
       0.0973324 0.011587929 -0.04476638 0.048252985
000300 d7 2b 41 3c 95 c1 b0 bd 93 cd 03 bd 10 f3 bf bc
       0.011790237 -0.08630673 -0.032178473 -0.02343133
000310 f4 33 8a 3c 97 76 11 bb 10 da ef 3d 01 06 7e 3c
       0.016870476 -0.002219593 0.11711514 0.015504361
000320 ea ec af bd 03 d4 6a bd 40 f7 67 3c e6 8d 33 bd
       -0.0859011 -0.057331096 0.01415807 -0.043836497
000330 b8 58 85 3d c6 52 2f 3d dd f5 85 bc eb ef 37 bc
       0.065110624 0.04280355 -0.016352588 -0.0112266345
000340 1a 51 5b 3d 73 9e 32 bd be 95 a8 bd 55 6c a4 3c
       0.05354414 -0.04360814 -0.08231686 0.020071188
000350 f4 8d 13 bc c5 db 09 3c 96 a0 b0 bd 22 66 f2 bc
       -0.009006012 0.008414214 -0.08624379 -0.029589716
000360 a5 9a c5 3d 4e d6 06 bd 78 bb f4 3d dc e9 f9 3c
       0.09648637 -0.03291922 0.11949819 0.03050702
000370 72 fc 1d 3e 77 0d 51 bd cf 09 c2 bd 8f 35 10 3e
       0.15428331 -0.05103823 -0.09474527 0.14082931
000380 50 62 aa 3d 50 c9 59 3d e9 cb 54 bd 1a 9c 80 3d
       0.08319533 0.053170502 -0.051952276 0.06279774
000390 32 0c fb bc 50 fa 6e bc 77 25 e8 3d ed 64 40 bc
       -0.030645464 -0.014586046 0.11335271 -0.011742813
0003a0 31 58 14 bd a2 c6 33 bd e0 5c ab 3d f3 4a 14 bd
       -0.03621692 -0.043890603 0.08367324 -0.03620429
0003b0 bb e0 5e 3c 98 43 10 be 6f b6 10 3e 9b a9 41 3c
       0.013603385 -0.14088285 0.14132093 0.011820222
0003c0 85 fa 2f 3d 2c 5c cd bd 51 eb b7 3c cf 11 21 3d
       0.042963523 -0.10027346 0.022451075 0.039323624
0003d0 08 ef ba bb 14 02 4c bc 97 e9 b9 bd 0a 8b d5 3c
       -0.0057047643 -0.012451667 -0.09077757 0.026067276
0003e0 68 30 0d 3b ff 91 50 3d bc 13 85 bd eb e8 29 3c
       0.0021543745 0.050920483 -0.06497905 0.010370473
0003f0 d1 c2 b5 3c 2c 5c 98 bd 76 55 e8 3d d3 24 28 3d
       0.022187622 -0.074394554 0.113444254 0.041050743

encoder.weight_hh_l0 f4 [512, 128]
000000 01 19 9d 3b c7 3c 9c 3d 8e 63 df 3d 8a 60 7c bc
       0.0047942405 0.0762878 0.109076604 -0.015403876
000010 72 08 99 bc 69 b9 dc bc 11 7d a7 3d 09 0a e9 3d
       -0.018680785 -0.02694388 0.081781514 0.11378867
000020 7b 9c d3 3d 90 ac ae bc 6f 0d 77 3c 12 b0 b8 bd
       0.10332581 -0.021322519 0.015078886 -0.09017958
000030 ad b4 22 bd 56 f7 f5 bc 18 a3 a9 bd a0 cf b8 bc
       -0.039723087 -0.030025166 -0.08283061 -0.02255994
000040 be fa 79 bc 74 8d db bc e2 01 bb ba 9c e7 1d 3d
       -0.0152575355 -0.026800849 -0.0014267529 0.038550958
000050 17 9e 7f bd 8b 57 a7 3c 9a d3 df 3d 69 8d b5 bd
       -0.062406626 0.020427486 0.10929032 -0.088648625
000060 b6 6f 8e 3c 53 b6 cd 3b f3 3b e4 3d 31 5c 9a bd
       0.017387252 0.0062778383 0.11144247 -0.07537115
000070 a9 e7 64 3c b5 49 68 3d 68 c9 4e 3d 4d 08 10 bd
       0.013971248 0.056710918 0.050485045 -0.035164166
000080 5f e9 a1 bc fb 70 fb bc 35 e9 f2 3c 5d 7e a8 bd
       -0.0197646 -0.030693522 0.029652217 -0.08227227
000090 2c 4d e0 3c 2a 66 38 3d f5 18 37 3d 46 12 3e 3d
       0.027380548 0.045019306 0.044701535 0.046404146
0000a0 6c ab 6d 3b fc 4a 46 bd 54 68 09 bd 83 e3 58 3d
       0.0036265505 -0.048411354 -0.03354676 0.052951347
0000b0 fa 20 04 3c a1 a6 a8 bd a2 d2 02 bd 48 66 02 3d
       0.008064503 -0.08234907 -0.031939156 0.031835824
0000c0 04 fb b4 bc b1 48 9d bd bd 6f ba 3d 55 f7 61 bd
       -0.02209235 -0.076798804 0.09103344 -0.055167515
0000d0 ba b4 6b 3c 02 e3 6c 3d df 9c 86 bd c7 db d8 bc
       0.01438635 0.05783368 -0.065728895 -0.026471986
0000e0 3b 8d 66 3d 1e 2a b7 bd 27 70 6a 3d 10 a3 10 3d
       0.05628703 -0.0894358 0.057235863 0.03531176
0000f0 1a 24 2a 3d df 6e 65 bd 8c 37 02 bc 18 27 95 bd
       0.041538335 -0.056013938 -0.007947814 -0.07282847
000100 b9 ff ab 3d f2 2e b5 3c 07 4f 37 3d 64 28 a1 3d
       0.083983846 0.022117112 0.0447531 0.07869032
000110 7c 20 b7 bc 76 f3 e2 bc 62 7d 06 bd 6e 50 99 3d
       -0.022354357 -0.027703982 -0.032834418 0.07486044
000120 29 b6 dd bb 60 9d 5f 3c 5b ae cd bd cc 7f eb 3c
       -0.0067661 0.013648361 -0.10043021 0.028747462
000130 6a c4 16 bd 5c 5b c6 bc 2d 7c 89 3d be 1d 28 3d
       -0.03680841 -0.024213485 0.06713138 0.04104399
000140 04 dd 95 3d 61 b4 ca bd 32 90 65 bd 8e fb b2 bc
       0.07317546 -0.09897686 -0.05604572 -0.021848466
000150 fa 44 1d 3c 93 e7 bb bc cf 41 a0 3d 57 d1 3b bd
       0.009598965 -0.022937572 0.07825052 -0.04585394
000160 00 da a4 3d 7b 94 5a bd 79 d3 88 bc 46 b2 47 bc
       0.08049393 -0.05336426 -0.0167024 -0.0121885
000170 7e 2d 37 3d 75 54 5a bd e3 91 b5 bd 06 bc 4c bc
       0.04472112 -0.0533032 -0.08865716 -0.012496
000180 ea 60 ca 3c d7 5f fe bc 54 b3 6d bb ae 62 c0 3c
       0.024704415 -0.03105156 -0.0036270218 0.023484554
000190 bf 40 09 3d 67 e4 cd bc 62 83 8d bd c1 13 d9 3c
       0.033509012 -0.025133325 -0.06909825 0.026498677
0001a0 93 af ac bd 4a 98 60 3c ea 46 a0 3d 3a 5f fb bc
       -0.084319256 0.013708184 0.07826026 -0.030685056
0001b0 c0 16 aa bd dc 76 31 bd 03 af 47 3c c5 b3 43 bc
       -0.083051205 -0.043326244 0.012187722 -0.011944716
0001c0 28 ab 89 bd 03 d6 84 3d ae 01 bd 3c d4 04 52 bd
       -0.067220986 0.06486132 0.02307209 -0.051274136
0001d0 d3 8a 6a 3c 6b b4 23 3d 11 25 81 3d cc 9d e2 bc
       0.014315325 0.03996698 0.06305898 -0.027663134
0001e0 82 60 4d 3d 9e 4b 84 3d 1e 3a c3 3d 1c c0 e7 3b
       0.050140865 0.06459735 0.09532569 0.007072462
0001f0 fc d6 9c 3d 5f 50 d4 bb 05 29 9b 3c 5b e3 4f bd
       0.076581925 -0.0064793075 0.018940458 -0.050753932
000200 9a 48 c4 bc fe cd 13 3d 6a bf 82 3d 04 7f 86 3d
       -0.0239604 0.03608512 0.063841656 0.06567195
000210 c0 64 0a 3d 89 b3 73 bd e9 be 20 3d cc 0c c4 bc
       0.03378749 -0.05949739 0.039244566 -0.023931883
000220 09 25 ba 3b e1 c9 22 3d c8 d1 bb 3b 02 3f a5 3d
       0.0056806845 0.039743308 0.005731795 0.080686584
000230 ab 7a 16 3d b6 ba 1e 3d d8 b9 2c bc 4d 4e 0d bd
       0.03673808 0.03875228 -0.0105423555 -0.0344985
000240 cf 5a a9 3d 4f 3b 73 bd f2 8f a9 bd ab 0b e7 3c
       0.082692735 -0.059382733 -0.082794085 0.028203806
000250 89 28 0c 3d 2a a1 c4 3d e2 38 b5 3d cc c6 5e bb
       0.034218345 0.09601052 0.0884874 -0.0033993004
000260 18 c0 2b 3d 92 25 59 3d f0 c8 b4 bc b4 76 b9 bc
       0.04193124 0.053014345 -0.02206847 -0.02263961
000270 a2 54 0d bd d8 71 82 3d 29 dd a0 3d ae d8 ce bd
       -0.03450454 0.0636937 0.07854683 -0.10099922
000280 30 07 0e bd 4d ad 6d bd 5a 05 b7 bd 5d 2b 7c bd
       -0.034674823 -0.0580266 -0.089365676 -0.061564792
000290 39 9c 56 bd 32 87 27 3b 8c f2 5b 3c 09 ff b5 3d
       -0.05239508 0.002556276 0.013424527 0.08886535
0002a0 47 da 93 bc 1c 14 33 3d 86 62 63 bd 26 af ce bd
       -0.018048419 0.04372035 -0.05551388 -0.10092001
0002b0 71 79 b2 3c 2c cf c1 bc b1 9b 40 bd c3 06 8f bd
       0.021786423 -0.023658358 -0.04702348 -0.069837116
0002c0 0e f0 af bc c8 73 b3 bd ee a3 ba 3d 97 74 6c 3d
       -0.021476772 -0.08762318 0.09113298 0.057728376
0002d0 20 e3 23 3e 3b b5 25 bc 37 f3 b2 bb 55 a6 11 3d
       0.1600461 -0.0101140095 -0.0054611224 0.035559017
0002e0 7b 4d a6 3c 1b 37 b7 bb d1 29 3c 3d 1e aa 91 bd
       0.020300617 -0.005591286 0.045938317 -0.071125254
0002f0 ae f6 b7 bb a4 3f 8c bc 2d b9 1b 3d f2 d1 02 3e
       -0.0056141233 -0.01712019 0.038018394 0.127754
000300 1b 38 02 bd 2c 23 19 bd e0 e7 04 3e ce 4b f5 3b
       -0.031791788 -0.03738706 0.12979078 0.0074858433
000310 e1 1a c1 bd 7d 0c fd bc 2e ee 02 3d 4e 60 33 3d
       -0.09428955 -0.030889744 0.031965427 0.043793015
000320 82 00 81 3d c8 f8 7b bd 49 16 ca bd 9f 39 b0 bd
       0.06298925 -0.061516553 -0.09867532 -0.0860474
000330 08 13 ea bd 81 b6 8b bd 27 6c 3c 3a fc a6 41 bd
       -0.11429411 -0.06821919 0.0007187747 -0.04727839
000340 9a 06 00 bd 0c a4 09 be 72 06 87 bd 3e ff a3 bc
       -0.031256296 -0.13441485 -0.06593026 -0.02001917
000350 66 8d 84 bc c0 9e 80 3d b5 90 18 bc 8c e1 0d bd
       -0.016180705 0.06280279 -0.009311845 -0.034638926
000360 c3 e5 48 3d a1 fe 53 3d bd a2 8d bc d2 90 2b 3a
       0.049047243 0.051756505 -0.017289514 0.0006544712
000370 9f e2 3f bc 18 3d c2 bc 95 2e 23 3d 92 b8 61 3d
       -0.0117117455 -0.023710772 0.039839346 0.05510766
000380 38 56 7b bd e1 7b 6e 3d df f3 f5 3c 42 64 ad 3d
       -0.06136152 0.05822361 0.030023513 0.08466388
000390 a6 72 f3 bc 24 18 20 3c bb 2d 94 3c a9 e3 86 3d
       -0.029717755 0.009771381 0.018088212 0.065863915
0003a0 e0 8b b7 3d ea b7 2b 3d bd 67 11 3d 0e cf 88 3d
       0.08962226 0.04192344 0.035499323 0.066801175
0003b0 08 1b bf 3a c1 1c b7 bd 4c 57 0c bc 86 f2 63 3b
       0.00145802 -0.08941031 -0.008565735 0.0034782006
0003c0 52 8e 03 3d 8f 7e 7d bc e3 21 57 3d 97 95 d0 3c
       0.03211815 -0.015472068 0.05252255 0.025461955
0003d0 08 fe 2f 3d 08 2c 9d bb de be 74 bd 2a f4 2e 3d
       0.042966872 -0.0047965087 -0.059752338 0.04271332
0003e0 5b 30 5d bd 73 4a 47 3c a9 7c f5 bc d4 61 23 3e
       -0.054001193 0.012163746 -0.02996667 0.15955287
0003f0 cc 23 cc 3d 4c c0 48 bd ad 6e 50 3c a6 51 49 3d
       0.09967765 -0.049011514 0.0127217 0.04915013

encoder.bias_ih_l0 f4 [512]
000000 4e 86 d2 3d a8 3f d2 3d 13 86 1e 3c 11 9b 7c 3c
       0.10279523 0.10266048 0.0096755205 0.01541783
000010 5a fb a9 3c 62 23 4a 3d 6d 3f a3 3d 79 fc f4 3c
       0.020749737 0.04935015 0.07971082 0.029905545
000020 f8 f4 30 3d cf 81 69 bd 4d 83 67 bd 2c e7 4a bd
       0.04320237 -0.05700856 -0.056521703 -0.04953687
000030 29 03 fd ba 6c c9 4f bc 27 a5 b8 bc 34 c0 a6 3d
       -0.001930331 -0.0126823 -0.022539688 0.081421286
000040 3c 8f b2 3c 75 00 16 3d 94 c8 c7 3a 6d a2 46 3c
       0.021796815 0.03662153 0.0015242272 0.012123686
000050 b9 aa cf 3c 7e 7a 9d 3c f9 ae 2c 3d 04 bc 85 3d
       0.025349962 0.019223448 0.042159054 0.06530002
000060 c0 9e a6 3d d6 23 69 bc b9 ea 30 3d 81 62 7c 3d
       0.08135748 -0.014229735 0.0431926 0.06161738
000070 93 ef e8 3b 68 04 3d 3d a4 e1 e1 3d 89 6c ce bc
       0.0071086376 0.04614678 0.11029366 -0.025198238
000080 cd e4 5e 3d bb 2e 37 3d 27 11 83 3d 9d 8b 08 3d
       0.05441742 0.0447223 0.06399756 0.03333627
000090 3d b1 d9 3d ba cc bd bc 6d 00 22 3d 76 cc b2 3d
       0.10629509 -0.02316891 0.039551187 0.08730404
0000a0 9a 43 57 bd b3 01 87 3d bf f9 dc bc fb d4 15 bd
       -0.052554704 0.06592121 -0.026974557 -0.036580067
0000b0 18 55 1d bc 36 c8 28 3d 16 e4 d7 3b 40 7f b6 3d
       -0.009602807 0.04120656 0.0065884693 0.0891099
0000c0 56 be 22 3d 6c 2f 38 bd 2b a5 93 3d b2 0d 0c 3d
       0.0397323 -0.0449671 0.07209238 0.03419275
0000d0 60 52 32 3d cb a2 27 3d 78 92 c2 3d a0 f3 5e 3c
       0.04353559 0.040926736 0.09500593 0.013607889
0000e0 04 6c 2d 3b 66 9d 82 3d 70 5b b3 3c 0d 77 a9 3d
       0.0026462087 0.063776776 0.021894187 0.0827466
0000f0 a5 7a 9d 3c 8b c1 fc 3d 32 e8 03 3d 50 a2 14 3e
       0.01922352 0.12341603 0.03220386 0.14515042
000100 2c c8 3a bd 4e b9 e8 bc bb 9e 81 3d bd b3 40 bd
       -0.045601055 -0.028408673 0.063291036 -0.04704641
000110 8f 7d 32 bd 13 fd 90 bb dc fc a6 3d ef 18 11 bd
       -0.043576773 -0.0044247 0.08153698 -0.03542417
000120 56 1e ed 3c 5d 30 b0 3c 23 72 ae 3d 61 aa 89 3d
       0.02894513 0.021507436 0.085178636 0.0672195
000130 2f 63 96 3c f2 5f 9f 3c 0d c7 1f 3c 13 b0 9a 3d
       0.018357841 0.01945493 0.009752047 0.07553115
000140 b8 e9 63 bd 0b f7 11 3d 2a d1 3e bd 6a cb 51 bd
       -0.055642813 0.03563599 -0.046586193 -0.05121938
000150 5c df ba 3d 4b f2 9b 3d ea 63 e2 3d 8f 67 0e 3c
       0.09124634 0.07614573 0.11054213 0.0086916825
000160 75 48 88 3c b3 cb b1 3d 2b 31 92 3d 63 bd 70 bd
       0.016636113 0.08681431 0.07138284 -0.058774363
000170 39 75 d6 bb bd 0c 83 3d 48 18 eb 3d 90 04 51 3d
       -0.0065447357 0.06398914 0.11479241 0.05102974
000180 bf d3 b8 3d d0 71 84 3d 50 d9 86 3d bb 39 a3 bd
       0.09024762 0.064670205 0.06584418 -0.079699956
000190 73 e4 eb 3d 97 45 a6 bd 6d 5e 12 3e ab 24 26 bb
       0.115181826 -0.08118742 0.14293833 -0.0025351446
0001a0 c2 99 11 3d 20 29 cd 3c 97 0c 93 bc f6 c5 b1 3d
       0.035547026 0.025044024 -0.01795034 0.08680336
0001b0 90 67 5c 3d 64 21 bd 3d 15 40 fa 3c 87 a7 19 bd
       0.053809702 0.092348844 0.030548135 -0.037513282
0001c0 a4 96 c8 3d 2a 2f c9 bc ab 04 7f 3d 1b c2 18 bb
       0.097943574 -0.024558622 0.06226031 -0.0023309055
0001d0 4b bf a2 3d bf 63 13 bd 97 0d 42 3d 5b b6 62 3d
       0.079466425 -0.035983797 0.04737624 0.05534969
0001e0 52 92 6f bd 32 0d 6c 3d 2d 16 f1 3d 99 32 15 3e
       -0.05848915 0.05762977 0.11771808 0.14570083
0001f0 1c 8b c8 3d fa c0 a3 3c 5e e5 57 3c c0 f4 f6 3c
       0.09792158 0.01998948 0.013177244 0.030146003
000200 4b f0 52 3c 3a 60 85 bc 05 bf af 3d 3b c2 06 3c
       0.012874673 -0.016281236 0.08581356 0.008225019
000210 45 f4 53 3d 07 88 56 3d f3 89 20 3d a2 92 6f 3d
       0.051746625 0.05237582 0.03919406 0.05848945
000220 4a 26 c1 bc 8b 11 2a 3d f8 90 7c 3d 55 f9 05 3d
       -0.023577828 0.041520637 0.06166169 0.032708485
000230 b2 d3 87 3d 13 76 2a bd 5d 18 a6 3d e5 00 26 bd
       0.066321746 -0.04161651 0.08110116 -0.040528197
000240 8b 4a 43 3d 23 57 81 3d 31 28 96 3a 2a 77 17 3c
       0.04767851 0.06315448 0.001145607 0.0092447195
000250 0c 44 ef bc 49 1b 58 bd 28 03 c8 bb 47 05 af 3d
       -0.029207252 -0.052760396 -0.006103892 0.085459284
000260 3e 0e 1d 3d 19 94 87 3d 2d 9a ce 3d 0f d9 fe 3c
       0.03834366 0.06620044 0.100880004 0.031109361
000270 c8 2a 66 3d 56 e6 30 bc 33 4e bd 3d 1e 72 93 ba
       0.056193143 -0.010797104 0.09243431 -0.001124922
000280 43 4d d4 3c 19 c2 76 3d 30 fb e8 ba 27 82 83 3d
       0.025915748 0.0602437 -0.0017775055 0.06421309
000290 5e f5 44 bd 2e 0a 5b 3d f4 06 09 3c 6d 87 a8 3d
       -0.048085563 0.053476505 0.008363474 0.082289554
0002a0 c2 57 19 3d f5 2b 55 3d f5 0a aa 3c 84 1c f9 3c
       0.037437208 0.052043874 0.020757178 0.030409105
0002b0 e2 df 50 bb 7a 12 8a bb 5a ad 8a 3d 01 34 96 bd
       -0.0031871726 -0.0042136284 0.067713454 -0.07334138
0002c0 37 d2 8b bb 54 6a 24 3c 96 95 ef bc 5a 03 93 3d
       -0.004267003 0.010035116 -0.029246133 0.07178374
0002d0 fe 8c 33 bd 44 e8 bd 3d 54 93 41 3c 99 15 b2 3d
       -0.043835633 0.09272817 0.011814911 0.08695526
0002e0 77 c1 b0 3d b4 22 e0 3c c5 03 66 3c 5e 84 95 3d
       0.086306505 0.027360298 0.014038985 0.07300638
0002f0 f5 60 c6 3c 34 1a dc 3d 3b bb 48 bd 61 c8 84 bd
       0.024216155 0.10747185 -0.049006682 -0.06483532
000300 40 db 64 3d d1 c2 aa 3c f4 e7 69 3d 8f b5 bc bb
       0.055873156 0.020844849 0.057105973 -0.005758948
000310 ea 76 a0 bd a0 70 e2 bb f3 27 aa 3d e1 86 43 bc
       -0.07835181 -0.0069103986 0.08308401 -0.011934013
000320 c9 f4 67 bd 95 50 8a bd 62 1e 53 3c c8 a7 04 bd
       -0.05662993 -0.06753651 0.012885662 -0.03238657
000330 29 2b 9f 3d ab e3 88 bd 63 1d 31 3c 99 f6 1e 3b
       0.07771904 -0.06684049 0.010810229 0.002425587
000340 c8 d2 63 bd f8 5b aa 3b 7a e8 46 bd 7d 97 7f bd
       -0.05562094 0.005198952 -0.04856155 -0.06240033
000350 0e 85 7c 3d 6a d9 20 3d f8 60 b6 3d a7 31 54 bc
       0.06165033 0.039269842 0.08905214 -0.012951291
000360 63 e9 d1 bc 93 b9 94 3d 96 6f 03 3d 0d dd 1e bd
       -0.025623983 0.07261958 0.03208884 -0.03878503
000370 d9 09 73 bc fa a0 4a bc 9e 8d ab 3c 95 07 d4 3d
       -0.014833891 -0.012367481 0.020941552 0.10353009
000380 09 c8 b2 ba 02 ab bc 3d d0 5d 31 3d b3 0d 77 bd
       -0.0013639937 0.09212305 0.043302357 -0.0603158
000390 cd ea 9b bb 9a ac 01 3d 58 f0 4b 3d 41 14 77 3d
       -0.004758215 0.031658746 0.049789757 0.06032205
0003a0 20 8e dd 3d c5 7b 7b 3d a2 a5 61 bd 29 70 d3 3d
       0.10818124 0.061397333 -0.0550896 0.10324127
0003b0 67 85 29 3d ba 64 0f bd 2f 17 43 3d 05 6c 77 3d
       0.041386988 -0.03500817 0.04762953 0.06040575
0003c0 43 f7 70 3d f9 98 0b 3d b5 e5 8c bd f4 03 08 3d
       0.058829557 0.034081433 -0.06879751 0.033206895
0003d0 13 86 e3 3d 5b 17 7b bd 27 53 8e bd 85 cd 3b bd
       0.11109557 -0.06130157 -0.06949454 -0.045850296
0003e0 f5 16 18 bd 08 24 0a 3d 7d 44 ba bc 38 78 22 3d
       -0.03713127 0.03372577 -0.022737736 0.03966543
0003f0 68 08 6c bd 8e d9 1e 3d 3a f1 b4 bc fb 36 61 bc
       -0.057625204 0.038781695 -0.022087682 -0.0137460185

encoder.bias_hh_l0 f4 [512]
000000 24 90 95 3c ca 18 bc 3c e6 9f ed 3c 45 85 60 bd
       0.018257208 0.02296104 0.02900691 -0.054814596
000010 15 98 89 3d 67 1d a7 bc 11 38 05 3e 68 75 41 3e
       0.067184605 -0.020399762 0.13009669 0.18892443
000020 0c 79 1f bb 5e 99 8f 3d f5 ac 44 bd 29 7d fc bb
       -0.0024333624 0.07011674 -0.048016507 -0.00770535
000030 24 25 46 bd 36 ed 75 3d 48 50 cf 3d b8 01 29 3b
       -0.048375264 0.060040675 0.10122734 0.0025788378
000040 80 e4 d5 3d 5e f9 0c 3d b2 5b e3 3d 2b 21 5e bc
       0.104439735 0.034417503 0.11101474 -0.013557713
000050 6c b7 6b bd 5e b4 39 3c 67 53 95 bd ed 47 f5 bc
       -0.05754797 0.011334507 -0.07291298 -0.029941523
000060 04 f0 fa 3d 10 b6 22 bd 65 62 ab b9 2a 7c b2 3d
       0.122528106 -0.03972441 -0.0003268897 0.08715089
000070 9e f4 36 3d 0f 80 7d bd e0 1e e8 bc 98 5e 83 bd
       0.04466688 -0.061889704 -0.028335035 -0.06414527
000080 92 dc 86 3d b7 d3 b0 3d 01 25 ba 3d 17 9f 08 bd
       0.06585039 0.086341314 0.09089089 -0.033354845
000090 f4 55 10 3d 15 c6 16 3d 34 d3 7e ba 70 37 a0 bb
       0.03523822 0.03681 -0.0009720803 -0.004889421
0000a0 81 19 d0 bc 74 2a 11 3c 4f 67 8c bc ab 30 3d 3d
       -0.025402786 0.008860219 -0.017139105 0.04618899
0000b0 be e8 6b 3c a8 d9 e2 bc 49 df 4e bd 8e 34 9d 3d
       0.014398752 -0.027691677 -0.05050591 0.0767604
0000c0 59 23 d8 3d 84 4b 8d bb 48 f4 d4 3b 4d 8e 1d 3d
       0.10553617 -0.0043119807 0.006498847 0.038465787
0000d0 82 5f d0 3d db c0 b0 bc 07 d1 3e 3d 9c 10 30 bb
       0.10174467 -0.021576336 0.046586063 -0.0026865369
0000e0 92 25 9c 3d eb 36 25 bd b2 68 49 3d a1 4e 88 3d
       0.076243535 -0.040335577 0.04917211 0.06655622
0000f0 2f 68 19 bb f2 27 07 bd 44 42 42 3d 6d b9 c7 3d
       -0.0023408046 -0.03299708 0.047426477 0.09752164
000100 9f e4 ba bc 00 da dd 3b ff 69 d5 3c a1 ff d0 3d
       -0.022814093 0.0067703724 0.02605152 0.10205007
000110 71 d0 c8 3c 61 07 27 bb 4a 87 3e bd bb 7d 40 3d
       0.024513455 -0.0025486576 -0.04651574 0.046994906
000120 d2 e0 ca bc 8d be 8f 3c a9 fe 8d 3d f8 6f 55 3d
       -0.024765406 0.017546916 0.06933338 0.052108735
000130 11 f7 bc bc 79 c4 1e 3b 0b 56 54 3d 85 fd 1b 3d
       -0.02306703 0.0024225994 0.05183987 0.038083572
000140 b9 5b b0 3d 7f 07 bc 3d 9a 1a 1d bd 44 42 13 3d
       0.08611245 0.09181117 -0.038355447 0.035951868
000150 4e 96 ba 3d b3 85 4f 3c 9b cf d0 3d 87 47 87 3d
       0.091106996 0.012666154 0.101958476 0.0660544
000160 96 a7 f5 3d 43 13 dd bb fb 09 76 bb e3 9d 51 3d
       0.11994855 -0.006746681 -0.003754257 0.051175963
000170 27 1e c6 3d 97 14 b6 3d 1a 68 f6 bc c5 9a f1 3d
       0.0967372 0.08890646 -0.030078936 0.11797098
000180 17 1c be 3d a8 05 17 3d d7 b6 a5 bc f9 d0 9c bb
       0.092827015 0.03687063 -0.020228786 -0.0047856537
000190 4f 26 02 3e f0 c1 fc 3c 5f 3d 42 3c df d1 26 bd
       0.12709926 0.030854195 0.011855452 -0.040727492
0001a0 1a 51 48 3d bc e3 ce 3d 3d 1e ae 3d e0 57 9c 3d
       0.04890547 0.10102031 0.08501861 0.07633948
0001b0 cb ee 94 bd cd 9b 5f 3d 93 aa 3a 3d 7a e9 ab bc
       -0.07272109 0.054591943 0.04557283 -0.020985354
0001c0 25 e9 15 bc 53 05 aa 3d d7 9c 8b 3d 0d 9f a7 3d
       -0.009149824 0.08301797 0.06817024 0.081846334
0001d0 8d ef 7e 3c 9d 99 b7 3c b3 f8 c8 3d aa f0 8c 3d
       0.015560043 0.022412116 0.098130606 0.068818405
0001e0 51 b2 95 bd 31 74 1a 3c 63 7f da 3d 72 8d 30 3e
       -0.07309402 0.009427116 0.10668828 0.17241457
0001f0 63 11 94 3d 89 2a 15 bb 31 95 07 bd b5 f1 ad 3b
       0.07229879 -0.0022760949 -0.033101264 0.0053083547
000200 1c 71 9d 3d 0b 46 ba bd 9e d8 55 bd 6d 59 47 bb
       0.076875895 -0.09095391 -0.052208535 -0.0030418292
000210 f0 eb 8f 3d ad be 6c bd 00 f8 dc 3d 14 87 b6 bc
       0.070274234 -0.05779903 0.1078949 -0.022281207
000220 cf 6d 8b 3d 0b b5 36 3b d7 3a 80 bd bb c5 32 bd
       0.06808054 0.0027878906 -0.06261223 -0.0436456
000230 19 33 4b bd 05 03 95 3d 1f 1d 2b bd 31 4d e6 3a
       -0.049609277 0.072759666 -0.04177582 0.0017570612
000240 bb 55 2b bd 28 ca aa 3c 52 e8 22 3d 64 ab cc bc
       -0.041829806 0.020848349 0.03977234 -0.02498407
000250 c1 d5 28 bd 15 6d 27 3d ef a9 6c 3d ba 24 68 3d
       -0.041219477 0.040875513 0.05777925 0.05667565
000260 f2 88 d5 3d ca de 37 3c 80 1c 9a 3b a5 cc 42 bc
       0.10426511 0.011222551 0.0047031045 -0.011889611
000270 cd e4 55 bd 8f 8d f1 3c dd 03 13 bd 1e 40 f3 bc
       -0.052220155 0.029486446 -0.035892356 -0.02969366
000280 c1 2f d4 3b cb 06 2c 3d 5e 0d c1 3d 77 23 3a 3d
       0.0064754193 0.041998666 0.09426378 0.04544398
000290 36 a6 30 bd 47 2e cb 3c 66 64 e2 3d ef 58 12 3d
       -0.04312726 0.02480234 0.11054306 0.035729345
0002a0 e8 2e 43 bd c3 c4 c6 3d fc 31 11 bc 10 09 aa 3d
       -0.047652155 0.09705498 -0.008862015 0.0830251
0002b0 2a 40 18 3d 91 92 89 3d 6b b7 fd 3d 1a 30 5f bd
       0.037170567 0.067174084 0.123885 -0.054489233
0002c0 09 a5 c6 3c 63 66 53 3d 9f 5d 8b 3b e3 b3 1d bd
       0.024248617 0.051611315 0.004253104 -0.03850163
0002d0 cc 57 4a bd a3 34 25 3c 21 07 ab bc 45 0d 82 3c
       -0.049400136 0.01008335 -0.020877423 0.015875468
0002e0 1d 3d 8d 3d 49 35 56 bd d8 45 9d 3d 88 8d 89 3c
       0.06896422 -0.05229691 0.07679337 0.01679112
0002f0 44 b8 aa 3a d0 4e 82 3d af 57 a4 3d 72 ae 90 3c
       0.0013024886 0.063626885 0.08024537 0.017661307
000300 fc 23 47 3d f7 95 b1 bc 50 0d 36 3d 1f a3 73 bd
       0.0486183 -0.021677954 0.04444629 -0.059481736
000310 b0 44 23 3d 21 43 7a bd 1e 93 5b 3d 2d 47 db 3d
       0.039860427 -0.061099175 0.0536071 0.10706935
000320 85 0c a0 3d cb 6d 14 3d 16 38 60 bc 2a 1b 97 bb
       0.07814888 0.03623752 -0.013685247 -0.0046113925
000330 5e ae b1 3d bb 44 c0 bc b2 73 43 3d 57 a9 49 3d
       0.08675836 -0.023470273 0.047717758 0.04923376
000340 af fd 49 3d a0 c7 03 3d d4 1b e1 3d ad 5e 62 3b
       0.049314197 0.0321728 0.10991636 0.0034541294
000350 a5 c1 8e 3d 42 40 b6 3d 10 e5 8b 3d 85 86 2c 3d
       0.069705285 0.08898975 0.068307996 0.042120475
000360 60 49 2c bd 99 62 8e bd ea bb 03 3d b3 cd 01 3d
       -0.042062163 -0.069524 0.03216163 0.03169031
000370 f0 62 3b bd 2b 23 3c 3d 0b c7 01 3d 6f 0e 83 3b
       -0.04574865 0.045931976 0.031683963 0.0039995234
000380 83 eb 79 bd 0a 5c a5 bc d5 80 c0 ba 61 0f 31 bd
       -0.061015617 -0.02018549 -0.0014686832 -0.043227557
000390 18 f9 86 3d ce 20 46 bd 84 c8 47 3d c8 b8 aa 3d
       0.065904796 -0.04837113 0.04877521 0.083360255
0003a0 bd 9e 3b bd 03 a9 2b 3c ee cc 6d 3c 7e 2b 7c bd
       -0.04580568 0.010477307 0.014514191 -0.061564915
0003b0 94 ff c3 3c 77 60 c6 3d 7d ea b3 3d ae d8 bd 3d
       0.02392558 0.09686368 0.087849595 0.09269844
0003c0 c8 72 53 3d c1 26 22 3d 0a dd 9c 3d ec 2d 40 bd
       0.051623136 0.03958774 0.07659347 -0.046918795
0003d0 61 78 b5 3d 30 89 88 3c 3c 0d cc bb 8c 16 38 39
       0.08860851 0.016666979 -0.0062271636 0.00017556007
0003e0 ed 17 93 3c 9a 52 4d 3d 81 87 1e 3d 33 45 91 3d
       0.017955745 0.050127603 0.038703445 0.07093277
0003f0 ce 25 f4 3b 16 d0 69 bd f8 ad ab 3c 43 8b b8 bc
       0.0074507957 -0.05708321 0.020956978 -0.022527343

decoder.weight_ih_l0 f4 [512, 1]
000000 e8 da 53 bb fc 5a 70 bd 1d 67 9a 3d 0e 88 3b bd
       -0.0032326523 -0.05868052 0.075391985 -0.04578405
000010 02 60 07 be 88 37 a4 3d f3 c4 44 bc 88 f0 b0 bd
       -0.13220218 0.08018404 -0.012009847 -0.08639628
000020 fb 40 04 3d 64 af bd 3b a2 2a 35 3d ed 96 57 ba
       0.032288533 0.0057887305 0.04423011 -0.0008224089
000030 44 99 38 3d 87 5f 9b bd e8 76 8d bd 60 1b c8 bc
       0.04506804 -0.0758658 -0.06907445 -0.024427116
000040 90 6e 24 3d fd 6e 08 bd 00 6a 18 3d 35 21 db 3c
       0.040144503 -0.03330897 0.037210464 0.026749233
000050 e8 0d c1 bd 3d e5 e3 3d 3b fe 3a 3d 36 a7 76 bc
       -0.094264805 0.11127708 0.04565261 -0.015054515
000060 fb 6a c0 3c 8f a7 15 3d b7 ea 91 3d f4 74 a9 bd
       0.023488512 0.03653675 0.071248464 -0.0827426
000070 ee 10 39 3d 29 ed a8 3d 6b e0 7f bd f1 33 1b 3d
       0.04518216 0.0824836 -0.06246988 0.037891332
000080 c3 f3 4d bd 0f cb 35 bd 24 a2 90 bb 29 4d 9e bd
       -0.050281297 -0.044383105 -0.00441386 -0.07729561
000090 4f 53 52 3d ee 78 a9 bd d4 fa 21 bd 7a 49 f8 bc
       0.05134898 -0.08275019 -0.03954585 -0.030308474
0000a0 d9 8e 9e 3d 1e a0 07 3d fd 4e 4b bd c4 d2 9f 3d
       0.0774209 0.033111684 -0.049635876 0.07803872
0000b0 70 96 91 bc b0 c6 83 3c d5 99 c8 3c 09 40 79 3d
       -0.01777193 0.016085953 0.024487415 0.060852084
0000c0 54 ce 07 be 14 09 4c bd 36 7d eb 3d d7 80 e7 bd
       -0.13262302 -0.049813345 0.114984915 -0.11303871
0000d0 79 cd dd bd 0e a5 c1 bd 57 8f 75 bd 72 48 68 bd
       -0.108302064 -0.0945531 -0.059951153 -0.056709714
0000e0 48 0d aa bd 12 e5 11 bb a1 c9 cf 3d 7c 3b b9 3d
       -0.083033144 -0.002226178 0.101458795 0.09044549
0000f0 a4 10 15 3c ec bf 89 bc 6e 6f fd bd 64 99 67 bc
       0.009098206 -0.016815148 -0.12374769 -0.014135692
000100 a9 d1 0f be 6f c0 ed 3d 44 e5 07 3b f8 89 b6 bc
       -0.14044823 0.116089694 0.0020736018 -0.022282586
000110 71 27 62 3c 26 0c fb bc e1 91 75 3d 06 d3 cc bd
       0.013803349 -0.030645441 0.059953574 -0.10001187
000120 e4 45 0d 3e b0 a3 2f 3d 88 3f d4 3a 27 a2 92 3d
       0.13796192 0.042880714 0.001619325 0.07159834
000130 72 4f 8e 3c ef db e1 bd c6 99 4c 3d 39 04 ae bb
       0.017371867 -0.11028277 0.049951337 -0.005310562
000140 04 89 75 3c 18 95 28 3d 4d d7 99 3c 00 50 4e 3d
       0.01498628 0.041157812 0.018779421 0.050369263
000150 74 b9 27 3b bb bc d9 3d b7 81 e3 3d af b5 87 bd
       0.0025592716 0.106317006 0.111087255 -0.0662645
000160 f9 3f 99 bd cd 46 b6 3d ee 85 53 bd 3a 2f 44 bd
       -0.07482905 0.08900223 -0.051641397 -0.0478966
000170 05 4f b5 3d 21 4c bb 3d df 1c 7b bd 57 2c 03 bd
       0.088529624 0.0914538 -0.06130683 -0.032024708
000180 97 01 c4 bc 1e 12 27 bd ae 1d 60 3c 2d 8b e6 3c
       -0.02392654 -0.040788762 0.013678951 0.028142536
000190 e2 83 37 3e 05 e0 88 3d 20 8b f5 bd ae 32 33 bd
       0.17921403 0.06683353 -0.119894266 -0.043749504
0001a0 34 bf 1a 3c b7 40 c0 bc be c2 67 bc c9 05 44 bc
       0.009445 -0.023468358 -0.014145551 -0.01196427
0001b0 d8 d5 28 3b 3a 8a 8e bd d3 be 2b bc 30 26 ae bd
       0.0025762226 -0.069599584 -0.010482508 -0.085033774
0001c0 df 92 26 bd ab 1e d7 3c 31 46 9d bd 1f 11 f2 bd
       -0.04066741 0.02625974 -0.076794036 -0.11819672
0001d0 e3 9f 8f 3d d3 0e a6 bd 4a d3 3f bd a6 c7 40 bd
       0.07012918 -0.08108296 -0.04683236 -0.0470654
0001e0 85 69 f5 3d 0e 5a b9 bd 21 d3 1b 3e f1 ca 1d bd
       0.11983017 -0.0905038 0.15217258 -0.038523618
0001f0 ca c2 cd 3d 1f 20 21 bd 05 87 90 3d 14 71 4a 3d
       0.10046919 -0.039337274 0.07057003 0.049424246
000200 95 4d d2 3d b2 2f 3f bd 36 18 d6 bd 3e 36 0d bc
       0.10268704 -0.046676345 -0.104538366 -0.008618889
000210 95 62 c9 bc 6f 31 5f bd 0a 27 d1 3c 90 a9 e1 bc
       -0.02458314 -0.054490503 0.02553131 -0.027546674
000220 0d 52 9e 3d 03 3e 91 bd 56 c0 00 3e a2 17 fe bc
       0.07730494 -0.07091906 0.1257337 -0.031017128
000230 c2 b3 da bd 51 f3 bf 3d 75 a8 aa bd 22 d5 02 3a
       -0.10678817 0.09372581 -0.08332912 0.0004990866
000240 cc 8e fd 3d 20 21 1c 3d 73 6c a7 3d 52 5f eb 3b
       0.12380752 0.038117528 0.08174982 0.007182994
000250 99 1c b6 bd 3a eb 15 3d ce 81 1a 3d 03 b3 13 be
       -0.08892173 0.036601283 0.037721448 -0.14423756
000260 24 17 1b bc 4a b8 79 bc 81 62 2d bc 99 9c 50 bd
       -0.009465966 -0.015241692 -0.010582567 -0.050930593
000270 4f b6 08 3e 63 87 a3 bc 3f 64 cf bd 05 e3 44 bd
       0.13350795 -0.019962018 -0.10126542 -0.048068065
000280 9d ef c4 3c f7 08 29 bd c1 2d f9 bd c9 a0 75 bd
       0.024040038 -0.041268315 -0.1216693 -0.05996779
000290 fa 4f e8 3d 7b 45 56 3d 0e cf 24 bd 67 15 44 bd
       0.11343379 0.052312355 -0.040236525 -0.047871973
0002a0 e2 48 17 3d 90 d7 90 3d 2d 40 aa 3d e2 f5 c7 bd
       0.03693474 0.07072365 0.08313022 -0.09763695
0002b0 9e 77 2e bd 9f c1 ea 3d de 8f 12 3e 6f ed b2 bd
       -0.042594545 0.114627115 0.14312693 -0.08736693
0002c0 6d ed 0a 3d fd b6 b6 3d d2 3c 99 3d 15 8b dd bd
       0.033917833 0.08921621 0.07482304 -0.108175434
0002d0 28 46 98 3c 61 34 fa 3d e4 48 06 be ed 10 f3 3b
       0.01858814 0.12217022 -0.13113743 0.007417789
0002e0 97 8b 58 bc be 6d 03 3e d8 f9 e1 3a b0 b4 34 3e
       -0.013216875 0.12834832 0.0017240597 0.17647052
0002f0 11 a2 c1 bc d3 29 c2 bd 71 51 ed 3d af 61 90 bc
       -0.02363685 -0.094806336 0.11587799 -0.017624704
000300 8d 66 2a bd 0c c7 91 3d 65 a9 9d bd 1c 6e ce 3c
       -0.041601706 0.07118043 -0.07698325 0.025198989
000310 21 82 83 bd 66 b5 17 3d 2f 6e d0 3d 77 b1 d8 bd
       -0.064213045 0.03703823 0.10177266 -0.10580724
000320 d1 e1 82 3d b5 9d 77 3d 69 8d 02 be 0a e2 8c 3d
       0.06390727 0.060453136 -0.12749256 0.06879051
000330 fa b2 99 bd 04 0d 88 3d 41 c9 0a 3c 57 70 dc 3c
       -0.0750484 0.066431075 0.008470834 0.026909037
000340 8a f0 26 3d c8 91 17 b9 7a ce 88 bd 46 7b 1f bd
       0.04075674 -0.0001445479 -0.06680007 -0.038935922
000350 aa 80 37 bd 9e b0 8f 3d 6a c5 16 bd db 34 0c 3d
       -0.044800438 0.07016109 -0.036809362 0.034230094
000360 cb bb 96 3d 09 72 e6 bc 52 be 55 bd a4 7b 92 bd
       0.073600374 -0.028130548 -0.052183457 -0.07152489
000370 52 ad 96 3c 4a ba 3b 3d 1c 65 08 be 78 eb 91 bc
       0.018393192 0.045831956 -0.1331982 -0.017812476
000380 fa 12 f8 3c 9f a8 98 3d 1b f4 68 bd 79 92 24 3d
       0.030282486 0.07454037 -0.056873422 0.04017875
000390 5b 88 52 bc e8 57 75 3d 6c de 45 3d 32 18 dc b9
       -0.0128498925 0.059898287 0.04830782 -0.00041979697
0003a0 36 6d 93 3d 22 1a 1c 3d 10 38 10 3d 2a fa 16 3d
       0.07198565 0.03811086 0.035209715 0.03685967
0003b0 81 19 ba 3d 7b 10 5f bd d2 a7 d9 3d 0e cc 91 3d
       0.09086896 -0.054459076 0.10627712 0.071189985
0003c0 59 a2 52 bd 22 2b 14 3e 34 d3 57 bc ff af 28 be
       -0.051424358 0.14469579 -0.013172913 -0.16473387
0003d0 6a c8 7f 3d db 54 1c be 15 ca b7 3c 0e 3d e4 bc
       0.06244699 -0.15266745 0.022435227 -0.027861144
0003e0 2c 02 dd 3c 0d 8c d1 3c 76 70 05 be 56 63 f0 3d
       0.026978575 0.025579477 -0.13031182 0.11737697
0003f0 5f dd ca 3c 02 db 4c bc 58 32 f7 3b 52 32 00 3e
       0.024763761 -0.012503387 0.0075438432 0.12519196

decoder.weight_hh_l0 f4 [512, 128]
000000 df 0a e0 bd 40 32 4d 3c 43 41 9b 3d 10 f8 17 3d
       -0.109395735 0.012524188 0.07580807 0.037101805
000010 57 14 a9 bb dd 0f c2 bd 14 27 9b 3d 62 d0 0c bd
       -0.0051598954 -0.09475682 0.07575813 -0.034378417
000020 42 ee a6 bd fc 3c 83 bc 2b a0 c4 3c b4 98 0e be
       -0.08150913 -0.01602029 0.024002155 -0.13925439
000030 b7 a8 f5 3c 91 da 04 3d 4e da d6 bc d3 2e ec bd
       0.029987676 0.032435004 -0.026227143 -0.115323685
000040 35 08 99 bc a3 5d fe 3d 6a 00 4a 3c 76 b5 04 3b
       -0.018680671 0.124202035 0.0123292 0.002024976
000050 5c eb d5 bd f9 bc b4 3d 8b ca 5f 3c a2 b8 a4 3b
       -0.10445282 0.08825106 0.01365913 0.0050268928
000060 0b 58 19 be 4b 8b 7a 3d 31 af 65 bd 55 88 a1 3d
       -0.14974992 0.061167996 -0.05607528 0.078873314
000070 79 77 d7 bd f8 ff 8c bd 06 aa f4 3d 8a c1 82 3c
       -0.105208345 -0.0688476 0.11946492 0.015961427
000080 ec 83 2c bd a6 28 d2 3b 79 a2 24 be 1d c2 43 bd
       -0.042117998 0.006413537 -0.16077603 -0.047792543
000090 23 50 34 bd e6 f8 9d 3d 8b 10 0e bd 03 db 0b 3e
       -0.044021737 0.07713489 -0.034683745 0.13657765
0000a0 9b 2f ef 3d b4 1c d6 bd 40 18 92 3a 6f 55 a7 3c
       0.11679002 -0.104546934 0.0011146143 0.02042648
0000b0 72 36 74 3c 87 e3 1b bd c3 9d 0e 3c 0c 8d c8 3a
       0.014905559 -0.038058784 0.0087046055 0.0015300824
0000c0 21 af fe 3c 14 9c 9c 3d f3 91 fd 3d 80 95 50 bd
       0.031089367 0.07646957 0.12381353 -0.050923824
0000d0 cb 58 80 3d f6 15 b9 3b bf 3a 82 3d 1f 9d 60 3d
       0.06266936 0.00564837 0.06358861 0.054837342
0000e0 40 8c dd bc 4c e0 1c 3d b3 ad 51 3d 3e b6 bb 3d
       -0.027044415 0.038299844 0.051191043 0.09165619
0000f0 3a da 75 bd 3a 8e 5e bd 1e 04 54 3d c3 2c d1 bc
       -0.06002257 -0.054334857 0.05176174 -0.02553404
000100 00 d4 4f bb 91 8c 17 be 12 3e ab 3d 3a 11 8e bc
       -0.0031712055 -0.14799716 0.08361448 -0.017342199
000110 48 75 48 3c da a6 fa 3c ea 39 92 bc 54 d4 f4 bc
       0.012234993 0.03059714 -0.017849881 -0.029886402
000120 db e4 1b bd e7 21 2d bd 95 62 72 3c fc 4d 2d 3d
       -0.03806005 -0.04226866 0.014794012 0.0423107
000130 3f ab 21 bc 66 80 5a bc a8 92 5d 3b 13 fb 85 3c
       -0.009867488 -0.013336277 0.0033809338 0.016355073
000140 02 58 75 bd 70 0f db bc a7 07 01 be dd 8d 38 bc
       -0.059898384 -0.02674076 -0.12600575 -0.011264292
000150 dd 69 8b 3d bb 00 48 bb b2 67 34 bd 6f 0e 59 3d
       0.06807301 -0.0030518014 -0.044044204 0.05299228
000160 23 88 04 3e 61 94 69 bd 45 c9 68 bd 84 e9 34 3b
       0.12942557 -0.05702627 -0.05683257 0.0027605006
000170 72 01 c3 3c 09 3b b2 3d 3f 49 1c bd 5c 2f 88 3c
       0.0238044 0.08702666 -0.03815579 0.016624145
000180 82 88 bc 3d a1 f5 6d 3c 71 56 36 3d cc d6 cb bb
       0.09205724 0.0145238945 0.04451603 -0.006220674
000190 05 82 88 bc be 43 c2 bd a2 85 f0 bb df 9f a1 3b
       -0.01666356 -0.09485577 -0.007340149 0.004932388
0001a0 6c 5e 86 bd 09 73 09 bd 0e 13 b7 3d 4e 6b ea 3d
       -0.06560978 -0.03355697 0.08939181 0.11446248
0001b0 4b 1f 99 3c b0 a6 12 be 47 20 a4 bd ff 27 bf 3d
       0.01869168 -0.14321399 -0.08013969 0.093338005
0001c0 f1 c1 d3 bc ee 63 2b 3d f4 d5 81 3c 2f fb 2e 3c
       -0.025849314 0.041843347 0.015849091 0.010680004
0001d0 54 de af 3c 8f b1 69 3d 0e 55 78 bd 22 cc ba 3d
       0.021468319 0.0570541 -0.06062799 0.091209665
0001e0 de 7c 33 bc 5d 36 e7 bc 5c 7e 64 bc 6c 7b 5a 3d
       -0.010955064 -0.028224165 -0.013946142 0.05334036
0001f0 7d 86 a8 3b aa 83 07 bc e9 fb 38 bd 84 89 c7 3c
       0.0051429854 -0.008271137 -0.045162115 0.024357565
000200 40 76 65 3b f6 fa 4d 3c 00 7f a7 3d 09 9e 07 3d
       0.003501311 0.012572041 0.0817852 0.0331097
000210 63 60 79 bd 68 ec 08 3a 75 b8 b1 bb 84 48 8e 3d
       -0.060882937 0.00052232156 -0.0054236003 0.06947425
000220 1e b1 11 3d 35 19 94 3d be 85 91 bd 6c c7 e8 bd
       0.035569303 0.0723137 -0.071055874 -0.11366162
000230 0c 7e bb 3b 1b 52 d6 3c f9 1b eb bd a9 77 2e bc
       0.005721813 0.026162198 -0.11479945 -0.010648646
000240 26 46 de bb ec eb 95 3d aa e5 4a bd fe 04 a8 3d
       -0.0067832647 0.07320389 -0.04953543 0.08204077
000250 46 89 f6 ba 01 de 91 3d b3 56 06 bd cf f0 c9 bd
       -0.0018809221 0.07122422 -0.032797527 -0.09860384
000260 ad 40 a5 bd 51 d2 84 3b f6 6f 00 3e 31 e9 d1 3d
       -0.080689766 0.004053392 0.1254271 0.10249556
000270 95 cf 9f bd 4d 3e a7 bd a7 0b 50 3d 51 9c b6 bd
       -0.07803265 -0.0816618 0.050792363 -0.08916534
000280 b9 8c a6 3c c3 70 b9 3c 00 c1 ad bd d9 b7 83 bd
       0.020330774 0.022636777 -0.084840775 -0.064315505
000290 24 fa 46 bd 5c 13 2c bc db d7 3e 3b c1 07 e1 3d
       -0.048578396 -0.0105026625 0.002912036 0.10987807
0002a0 37 af c6 3d c8 d3 34 3d be 07 71 3d 0a 19 d8 bd
       0.09701388 0.044147283 0.058845274 -0.10551651
0002b0 1c 37 2a 3d e5 84 17 3d b7 83 0f bc 27 f7 a2 bd
       0.041556463 0.036991972 -0.008759431 -0.07957297
0002c0 77 a0 71 3d 25 59 88 3a f1 3a c6 3d 03 1d dd bd
       0.05899092 0.0010402544 0.09679211 -0.10796549
0002d0 ba 7f 16 3d 57 1a 52 3d 77 93 c9 3d 56 3c 03 3d
       0.036742903 0.05129465 0.0984258 0.032039963
0002e0 8a 9e 32 bc 72 69 35 bd f8 f9 26 bd dc b0 ad 3d
       -0.0109020565 -0.044290014 -0.040765733 0.08480999
0002f0 e9 90 c5 bd 33 3d 1c bd 22 52 a3 bd 18 45 b0 bc
       -0.0964678 -0.0381443 -0.0797465 -0.021517321
000300 d2 fb 9f bb 72 41 36 bc 82 1f 8d bb 0f cc c6 3d
       -0.0048823142 -0.011124002 -0.0043067345 0.0970689
000310 2d ba bc bd 0b 4e d8 bc 21 89 f9 bd 97 7b 54 3d
       -0.09215198 -0.026404401 -0.121843584 0.051875677
000320 d0 40 d2 3b 17 85 42 bd 1e 97 59 bc 51 1c 9f 3c
       0.0064164177 -0.047490206 -0.013280658 0.019422682
000330 e7 9b 35 bd 45 9d a8 3d 50 e9 72 bd 2e a8 d3 3c
       -0.044338133 0.08233122 -0.059304535 0.02583703
000340 0f af 5f 3d 99 a5 84 bd 84 1f ac bd fb 34 a4 3d
       0.05461031 -0.06476898 -0.08404449 0.08017918
000350 b7 b9 47 bc 68 2d 18 ba 5d 28 eb bc 53 6f 12 bd
       -0.012190274 -0.0005805106 -0.02870577 -0.0357507
000360 82 af 36 bc 92 21 02 3d ae 79 08 3d 13 a6 38 3c
       -0.011150243 0.031770296 0.033319168 0.011270064
000370 8b a4 17 bd b8 71 fe 3c 7d 26 15 be 2c 13 86 3d
       -0.037022155 0.031060085 -0.14565463 0.065466255
000380 df 3e cf 3c f5 c3 96 3d 4c e0 e3 3c 41 86 73 bd
       0.025298534 0.073615946 0.027816914 -0.059454206
000390 62 18 81 3d 68 2c 21 3d f7 50 81 bb d9 fc 93 bd
       0.06303479 0.03934899 -0.0039464193 -0.07225961
0003a0 67 2e c8 bd ba ac 1d bd 8c 0e c9 3d 1d 2e e8 3d
       -0.097744755 -0.038494803 0.09817228 0.113369204
0003b0 9d 25 97 3d 03 93 7d bd 48 9a 88 bd 97 47 5f bd
       0.07380221 -0.06190778 -0.06670052 -0.054511633
0003c0 42 8f 52 bd 0a e9 e7 3c b4 20 10 3d 86 0a 5a bb
       -0.051406153 0.028309364 0.035187438 -0.0033270433
0003d0 15 78 00 bd 98 e4 d2 3c 18 27 8d bd ea f0 8e 3d
       -0.03136452 0.025743768 -0.06892222 0.069795445
0003e0 e2 70 4e bd 6a 15 70 bd cf e6 b6 3d 67 92 11 3d
       -0.050400622 -0.058614172 0.08930742 0.03554001
0003f0 b4 44 8d bd 0d 9d fc 3c dc 2e 43 bd 72 44 9a 3d
       -0.0689787 0.030836606 -0.04765211 0.07532586

decoder.bias_ih_l0 f4 [512]
000000 cc 8b 90 bc d4 07 96 3d 7c 56 2d 3d 08 bd 41 3d
       -0.017644785 0.07325712 0.042318806 0.047299415
000010 9c 31 91 3d 7c 0f da bc 95 82 cc 3d a7 fd fd 3d
       0.0708954 -0.026618712 0.09985844 0.12401896
000020 bf 1e 75 3c e1 cb 06 bd 57 ea d1 3d e5 20 7e bc
       0.014960944 -0.032909278 0.10249775 -0.015510772
000030 ac f5 eb bc 6a 13 0a bd c5 08 ce bc 74 39 e9 bc
       -0.028803669 -0.03370992 -0.025150666 -0.028469779
000040 07 c2 98 bd d9 07 87 3b c7 9b ce 3c 0b 60 ae 3d
       -0.07458883 0.0041208086 0.025220765 0.085144125
000050 53 38 7c bd a1 0b 90 bd 7a b9 0e bc 0e 05 dc 3b
       -0.061577152 -0.07033468 -0.008711213 0.0067144698
000060 61 fb 38 3d 7a b8 b2 bc ff 39 1a 3d fc 1e 33 3d
       0.04516161 -0.02181648 0.037652966 0.04373072
000070 a8 fb 55 3d 46 f0 36 bd 61 29 0d 3d bc 27 7b 3d
       0.05224195 -0.044662736 0.03446329 0.06131719
000080 04 14 ba 3d c7 d7 bf 3d 48 14 8d 3d f9 a6 71 bd
       0.09085849 0.09367328 0.06888634 -0.05899713
000090 d6 6e 79 3b f2 74 7f 3d 8c 92 b6 3d 72 1c e1 3d
       0.0038060448 0.062367387 0.0891467 0.10991754
0000a0 3d 36 c3 3c 74 ed 97 3d 00 7a f6 bc 7e 32 ac bc
       0.023829574 0.074183375 -0.030087471 -0.02102017
0000b0 21 30 6d 3d 56 f5 5c bd 0e 2c 85 3d 01 fb 97 3c
       0.057907227 -0.053944908 0.065025434 0.018552305
0000c0 7b 0b 95 bc e2 a5 18 bd 5b 8a 55 bd 4c 0f 41 3d
       -0.01819395 -0.037267573 -0.0521339 0.04713373
0000d0 c1 90 94 3d 58 cd 43 3d 2e e8 98 3d 4e 56 c9 3c
       0.07254172 0.047803253 0.0746616 0.024577286
0000e0 f8 ee 8b 3d 6f c3 87 3d 29 45 8b 3d 20 51 d2 3d
       0.06832689 0.06629073 0.06800301 0.102693796
0000f0 03 f6 ea bb 9f 14 1b 3d fc f3 b6 3d a3 25 66 3d
       -0.00717044 0.037861463 0.08933255 0.056188237
000100 a4 b9 e9 3c 74 2f a7 3d d6 fa 94 3b eb a8 5f 3d
       0.028530903 0.08163348 0.0045465035 0.054604452
000110 f8 2f b0 3d 00 8e 8c bb a2 c8 b1 3d f4 ed 8d 3d
       0.08602899 -0.0042893887 0.08680846 0.069301516
000120 90 7e 54 3d fd 94 ea 3d 4c d3 19 3d 43 b3 ab bc
       0.051878512 0.114541985 0.037555024 -0.020959502
000130 ea 7a e0 3c 6c 2e 68 bc 96 98 81 3d 23 b1 1c 3c
       0.02740236 -0.014171224 0.063279316 0.009563717
000140 e5 4b 9b 3d 79 44 33 bd 32 4d b4 3d 2d 31 c9 3c
       0.07582835 -0.043766472 0.08803786 0.024559582
000150 0b e2 aa bc 75 65 b9 3d df 6d 12 3d a1 c8 88 3d
       -0.020859739 0.090525545 0.035749312 0.06678892
000160 0e 49 c4 3d 50 80 09 bd f4 63 62 3d 81 5b 17 3d
       0.095842466 -0.033569634 0.055271104 0.0369525
000170 a9 89 02 bd 24 0a b7 3d 33 b4 15 3d 6b e6 81 3d
       -0.031869564 0.08937481 0.036548804 0.06342777
000180 db b9 ff 3d 5d ba 8e 3d 68 e8 63 bc 09 0a d5 3d
       0.12486621 0.0696914 -0.01391039 0.10402305
000190 dd ba b5 3d d7 ad 8a 3d e5 77 58 bd fe a0 13 3d
       0.08873532 0.067714386 -0.052848715 0.036042206
0001a0 d7 13 99 bd 74 be 6b 3d 85 dc d7 3c a2 b4 d1 3d
       -0.07474487 0.057554677 0.02635027 0.10239531
0001b0 3b 30 6e bd 05 b8 4f 3d f4 3a 5e bd f9 55 8d 3d
       -0.058151465 0.050712604 -0.05425544 0.069011636
0001c0 0a 95 63 3d 1a ff bb 3c f2 70 05 3d 75 41 96 bd
       0.055562057 0.02294879 0.032578416 -0.07336704
0001d0 de 80 2f bd 98 2f 43 3d df 60 c1 bc ff 76 35 bd
       -0.042847507 0.04765281 -0.023605762 -0.044302937
0001e0 37 cc c3 bc 84 bd 48 3d d3 90 4c 39 c4 67 c4 3c
       -0.023901088 0.04900886 0.00019508907 0.02397526
0001f0 d2 43 ad 3c 9e b7 1c bd e7 0e ec 3c 11 ae 19 3d
       0.021150503 -0.03826105 0.0288157 0.03751952
000200 d1 17 e5 3b 5c 90 54 3b cd e7 70 3c 71 c6 5e 3d
       0.0069913645 0.0032434678 0.014703703 0.054388467
000210 7f 73 03 3c 3d ca bf bc a5 2e 16 bc 10 0a c9 bc
       0.008023142 -0.023411864 -0.009166394 -0.024540931
000220 e6 cc fe 3c e6 f2 6d bd 7c 3b 5e 3d 96 2d bc bc
       0.031103563 -0.058092974 0.054255947 -0.022970956
000230 25 a0 0f 3d 76 fa cf 3d 06 69 87 3d 6c 8a d2 3d
       0.035064835 0.101551935 0.066118285 0.10280308
000240 a0 83 0d bd 17 a7 8a 3c 9a 1c 76 3d ae be 3f bc
       -0.034549356 0.016925378 0.06008587 -0.011703176
000250 1e 3b 98 3d a5 8b bf 3d d3 ac 9f 3d 99 cc 4b 3d
       0.07433151 0.09352807 0.077966355 0.049755666
000260 c0 4b 98 bc ab 91 53 bd b8 a3 26 3d ec 41 5a 3d
       -0.018590808 -0.05165259 0.040683478 0.053285524
000270 86 08 30 3c 46 f0 38 3d 5d 58 98 3d 61 3b c0 3d
       0.01074422 0.045151018 0.07438729 0.09386326
000280 d9 c0 e3 3c 26 86 40 bd c0 11 a8 3d c4 37 e9 bc
       0.027801918 -0.047002934 0.082065105 -0.028468974
000290 6c ce a5 3d 38 85 84 3d 7b 6b 57 3c b6 e3 3c bd
       0.080960125 0.06470722 0.013148184 -0.0461156
0002a0 e2 8b e1 3d 83 12 9c 3d 0d 0f 92 bd d1 e4 8e bc
       0.11013009 0.07620718 -0.07131777 -0.017443093
0002b0 30 59 43 3d ec 8f 8a 3d c3 ae 01 bd 33 67 67 3d
       0.047692478 0.06765732 -0.031660806 0.056494903
0002c0 f2 58 83 ba b5 9a 01 3d 64 1d 7b 3d 97 b9 c1 bc
       -0.0010021015 0.03164168 0.061307326 -0.023648066
0002d0 9c 39 50 3c 7f 67 9b 3c b2 54 8d bd 12 2b 81 3d
       0.012709048 0.01897025 -0.0690092 0.06307043
0002e0 74 ad 5d 3d 87 37 c5 3b 83 85 29 3d c6 6c ec 3c
       0.054120496 0.0060185823 0.041387092 0.028860461
0002f0 73 0f 68 bd 35 57 8f 3d 80 d9 2b bd 39 69 51 3d
       -0.05665536 0.06999055 -0.04195547 0.05112574
000300 87 40 6d bd 94 4d 93 bc e4 d8 3e bd b6 b7 d0 bc
       -0.057922866 -0.017981328 -0.04659356 -0.025478225
000310 35 56 8a bd d8 fc 5f bd 3c 56 d4 3d 85 4d ab 3c
       -0.06754724 -0.05468449 0.103680104 0.020910988
000320 b9 de be 3d 59 a4 1f 3c 9a dc a9 3d 55 22 0e 3d
       0.09319825 0.009743773 0.082940295 0.03470071
000330 f3 c9 51 3d d8 46 b4 bc c1 59 57 3d be 50 ab 3d
       0.051217984 -0.022006437 0.05257583 0.0836501
000340 df fd 64 bd 74 72 67 bb 0c fd 4f 3d 1f 93 c0 3c
       -0.055906173 -0.0035316022 0.050778434 0.023507653
000350 9f 4c a3 3c 7e d2 88 3d 45 41 d1 3a 3c dc 95 3c
       0.019933997 0.06680773 0.0015964886 0.018293492
000360 12 02 2a 3d dc 4a ba 3d 70 b9 f7 3c 54 40 82 bd
       0.04150588 0.090963095 0.03023979 -0.06359926
000370 9f 16 ef 3b 4c de d5 3d 84 71 61 bd 3f fc f2 bc
       0.007296398 0.104427904 -0.055039898 -0.029661296
000380 af 8b 01 3d ec 00 1e 3d fb b7 bf bc 86 cd 9b 3d
       0.031627353 0.038575098 -0.023403158 0.0760756
000390 74 60 a7 3c 0d 30 49 3c 7b 1c b6 3d 37 3e 8f 3d
       0.020431735 0.012279523 0.08892151 0.069942884
0003a0 9b 60 bc 3d 72 4d 1f bc 1c 85 93 bc 8a 1b 80 3c
       0.091981135 -0.009723054 -0.018007807 0.015638132
0003b0 59 ef ac 3d 7d 9a 03 bd 26 bd 80 bd 52 95 0e bc
       0.084440894 -0.032129753 -0.06286077 -0.008702593
0003c0 50 7f 00 bc bd ff db 3d ea f8 5e bc 3c 74 a3 bd
       -0.007842854 0.107421376 -0.01360915 -0.07981154
0003d0 09 10 3c 3d ec 23 76 bd 0f f8 79 bc e9 6e bb 3d
       0.04591373 -0.06009285 -0.015256896 0.09152014
0003e0 c5 35 9f bd 5e b1 48 3d f1 88 49 bc be 3b ef 3d
       -0.077739276 0.048997276 -0.012300716 0.11681317
0003f0 05 84 a4 3d aa bb 21 bd e4 f7 de bc e5 86 ae 3d
       0.08032993 -0.03948561 -0.027217813 0.08521823
